…
Remain Fields: ['user_id', 'item_id', 'timestamp']
Sun 10 Dec 2023 02:34:35 INFO  [Training]: train_batch_size = [1024] train_neg_sample_args: [{'distribution': 'none', 'sample_num': 'none', 'alpha': 'none', 'dynamic': False, 'candidate_num': 0}]
Sun 10 Dec 2023 02:34:35 INFO  [Evaluation]: eval_batch_size = [2048] eval_args: [{'split': {'RS': [0.8, 0.1, 0.1]}, 'order': 'TO', 'group_by': 'user', 'mode': {'valid': 'full', 'test': 'full'}, 'groupby': 'user'}]
Sun 10 Dec 2023 02:34:36 INFO  CORE(
  (sess_dropout): Dropout(p=0.2, inplace=False)
  (item_dropout): Dropout(p=0.2, inplace=False)
  (item_embedding): Embedding(5739, 64, padding_idx=0)
  (net): TransNet(
    (position_embedding): Embedding(50, 64)
    (trm_encoder): TransformerEncoder(
      (layer): ModuleList(
        (0-1): 2 x TransformerLayer(
          (multi_head_attention): MultiHeadAttention(
            (query): Linear(in_features=64, out_features=64, bias=True)
            (key): Linear(in_features=64, out_features=64, bias=True)
            (value): Linear(in_features=64, out_features=64, bias=True)
            (softmax): Softmax(dim=-1)
            (attn_dropout): Dropout(p=0.5, inplace=False)
            (dense): Linear(in_features=64, out_features=64, bias=True)
            (LayerNorm): LayerNorm((64,), eps=1e-12, elementwise_affine=True)
            (out_dropout): Dropout(p=0.5, inplace=False)
          )
          (feed_forward): FeedForward(
            (dense_1): Linear(in_features=64, out_features=256, bias=True)
            (dense_2): Linear(in_features=256, out_features=64, bias=True)
            (LayerNorm): LayerNorm((64,), eps=1e-12, elementwise_affine=True)
            (dropout): Dropout(p=0.5, inplace=False)
          )
        )
      )
    )
    (LayerNorm): LayerNorm((64,), eps=1e-12, elementwise_affine=True)
    (dropout): Dropout(p=0.5, inplace=False)
    (fn): Linear(in_features=64, out_features=1, bias=True)
  )
  (loss_fct): CrossEntropyLoss()
)
Trainable parameters: 470657
Sun 10 Dec 2023 02:34:36 INFO  FLOPs: 4986664.0
Sun 10 Dec 2023 02:34:36 INFO  Time: 0.2416548728942871
Sun 10 Dec 2023 02:34:58 INFO  epoch 0 training [time: 21.91s, train loss: 2097.8872]
Sun 10 Dec 2023 02:34:59 INFO  epoch 0 evaluating [time: 0.73s, valid_score: 0.002400]
Sun 10 Dec 2023 02:34:59 INFO  valid result: 
…
