…
The sparsity of the dataset: 99.58997343580583%
Remain Fields: ['user_id', 'item_id', 'timestamp', 'type']
Sun 10 Dec 2023 02:00:28 INFO  [Training]: train_batch_size = [1024] train_neg_sample_args: [{'distribution': 'uniform', 'sample_num': 1, 'alpha': 1.0, 'dynamic': False, 'candidate_num': 0}]
Sun 10 Dec 2023 02:00:28 INFO  [Evaluation]: eval_batch_size = [2048] eval_args: [{'split': {'RS': [0.8, 0.1, 0.1]}, 'order': 'RO', 'group_by': 'user', 'mode': {'valid': 'full', 'test': 'full'}, 'groupby': 'user'}]
Sun 10 Dec 2023 02:00:29 INFO  NFM(
  (token_embedding_table): FMEmbedding(
    (embedding): Embedding(17024, 64)
  )
  (first_order_linear): FMFirstOrderLinear(
    (token_embedding_table): FMEmbedding(
      (embedding): Embedding(17024, 1)
    )
  )
  (fm): BaseFactorizationMachine()
  (bn): BatchNorm1d(64, eps=1e-05, momentum=0.1, affine=True, track_running_stats=True)
  (mlp_layers): MLPLayers(
    (mlp_layers): Sequential(
      (0): Dropout(p=0.0, inplace=False)
      (1): Linear(in_features=64, out_features=64, bias=True)
      (2): BatchNorm1d(64, eps=1e-05, momentum=0.1, affine=True, track_running_stats=True)
      (3): Sigmoid()
      (4): Dropout(p=0.0, inplace=False)
      (5): Linear(in_features=64, out_features=64, bias=True)
      (6): BatchNorm1d(64, eps=1e-05, momentum=0.1, affine=True, track_running_stats=True)
      (7): Sigmoid()
      (8): Dropout(p=0.0, inplace=False)
      (9): Linear(in_features=64, out_features=64, bias=True)
      (10): BatchNorm1d(64, eps=1e-05, momentum=0.1, affine=True, track_running_stats=True)
      (11): Sigmoid()
    )
  )
  (predict_layer): Linear(in_features=64, out_features=1, bias=False)
  (sigmoid): Sigmoid()
  (loss): BCEWithLogitsLoss()
)
Trainable parameters: 1119617
Sun 10 Dec 2023 02:00:29 INFO  FLOPs: 13571.0
Sun 10 Dec 2023 02:00:30 INFO  Time: 0.1766529083251953
Sun 10 Dec 2023 02:00:32 INFO  epoch 0 training [time: 2.17s, train loss: 291.5643]
Sun 10 Dec 2023 02:01:28 INFO  epoch 0 evaluating [time: 56.43s, valid_score: 0.008700]
…
